src/results_full/ae_model_state_dict.pth (torch, 708951 bytes, 12 tensors)

encoder.0.weight f4 [128, 618]
-0.013996149 0.0039892294 -0.028992236 -0.008849744 0.034427702 -0.15060334 -0.022554506 0.03215926
-0.06352822 -0.0035584376 -0.0671625 -0.061396897 -0.06280754 0.028835654 -0.07310395 -0.02613216
-0.032417476 0.02736587 -0.00850565 -0.034796502 -0.024767859 0.03902998 0.0135194585 0.006856788
0.019631352 -0.005172096 0.016979001 0.02630452 0.027193993 0.010784958 0.024873175 0.017322104
-0.0077758506 0.030354984 0.0013988465 -0.025512291 0.008491978 0.022560291 -0.021261813 0.020579614
-0.0374447 0.0027005263 -0.020715993 0.003821347 -0.038274772 0.02412986 -0.016866675 0.014323067
-0.03884165 0.009638507 0.023658544 0.01754351 0.023719028 -0.002300363 0.02704078 -0.026237395
0.01719319 -0.01992601 -0.011218717 0.03096795 0.023465179 0.03307338 -0.0250874 -0.03375388
-0.016566394 0.0034040362 0.03744693 0.027784169 0.03273873 0.004483793 0.015660834 0.038195252
0.0074647404 -0.016020251 0.00019045547 -0.021850312 0.0072726607 0.020241022 -0.027224824 -0.035399362
0.014826778 -0.035064034 -0.024338126 -0.05186224 -0.020428132 -0.07149297 -0.08251468 -0.014442969
0.052405823 -0.032764185 0.023140773 -0.04404358 0.019093085 -0.049473204 0.02351428 -0.03172539
-0.040175386 0.014059228 -0.014451039 -0.0071273902 0.013719287 -0.04941903 0.009638123 -0.032610036
0.046353403 0.040974952 0.06795369 -0.01392309 -0.0071932045 -0.01750056 0.021736106 -0.044742398
-0.019440172 -0.044770505 0.030051129 -0.0066834292 0.015356255 0.060707852 0.003982688 0.068189874
0.037484374 0.022948701 0.045014832 0.041008096 -0.029490136 0.10000216 -0.048080254 -0.017913245
-0.04047442 -0.030400174 -0.09452799 -0.032124314 0.018773641 0.059600405 -0.009108273 -0.04922914
-0.07181839 -0.012774649 0.00810467 0.097247966 -0.009983449 -0.04609119 -0.03120547 -0.0051196394
0.031576384 -0.0030695014 0.017167615 0.026832728 -0.048122708 -0.026793702 -0.02616906 0.033228043
0.00644508 0.02107457 -0.03817686 0.051239967 -0.0008106748 -0.027289813 -0.00241593 -0.024023637
-0.020007536 0.0662384 -0.019433228 0.0046864506 -0.093019985 0.037512127 -0.029423632 0.05613718
-0.009519877 -0.009788084 -0.00026249845 0.022458697 -0.0012322292 -0.018557834 -0.0082984455 0.03149695
-0.031379174 -0.03460225 0.016636405 -0.002944842 -0.0028578602 -0.019520812 0.0343372 -0.024833694
-0.0042145625 -0.030038673 -0.016973434 0.017418087 -0.03754821 -0.031919897 -0.025109243 -0.036256358
-0.013840318 -0.026504416 0.0024570897 0.032931805 0.01183499 0.017572317 0.036954597 -0.03906858
0.020379238 0.048231706 0.035153694 0.005297743 -0.03768511 0.005146865 0.010891058 0.02064237
-0.026341457 0.025304079 0.026026964 -0.014100194 -0.021185342 0.011558756 0.032889634 -0.010556759
-0.00017189234 -0.038932458 -0.036136724 0.00097157434 -0.030007254 0.03274545 0.014952444 -0.0010387152
-0.037469584 0.025032595 0.02033092 0.0075740293 0.01717671 -0.006591376 -0.027263947 0.031032443
0.039528318 -0.039723247 0.023736551 0.009469658 -0.013480425 0.013323341 -0.038720384 -0.033372078
-0.06265449 -0.066286616 -0.068435535 0.026196241 -0.034063764 -0.038781814 -0.0069708386 -0.05734068
0.0018404499 -0.027858188 -0.012699602 -0.034644157 0.011928238 -0.0038615502 -0.03556626 0.02308616
00000000: 1b50 65bc 15b8 823b 2081 edbc 84fe 10bc
00000010: 1004 0d3d c337 1abe 3ac4 b8bc 6eb9 033d
00000020: 151b 82bd ad34 69bb 7e8c 89bd 507b 7bbd
00000030: 3da1 80bd c038 ec3c 86b7 95bd 1d13 d6bc
00000040: 30c8 04bd 642e e03c 485b 0bbc c786 0ebd
00000050: f7e5 cabc e6dd 1f3d b880 5d3c e8ae e03b
00000060: eed1 a03c b07a a9bb 8c17 8b3c 947c d73c
00000070: f0c5 de3c 64b3 303c d4c2 cb3c 16e7 8d3c
00000080: 90cc febb 04ab f83c 8059 b73a 27ff d0bc
00000090: f021 0b3c 5cd0 b83c 412d aebc 9496 a83c
000000a0: 9d5f 19bd 50fb 303b 96b4 a9bc 906f 7a3b
000000b0: 02c6 1cbd fcab c53c fb2b 8abc 4cab 6a3c
000000c0: 6c18 1fbd d4ea 1d3c 90cf c13c 68b7 8f3c
000000d0: 684e c23c b0c1 16bb a084 dd3c ceef d6bc
000000e0: bcd8 8c3c df3b a3bc b6ce 37bc 80b0 fd3c
000000f0: 0c3a c03c f477 073d 1784 cdbc 8241 0abd
00000100: 3fb6 87bc 4016 5f3b f461 193d a09b e33c
00000110: 0c19 063d c8ec 923b 264b 803c a072 1c3d
00000120: c89a f43b e73c 83bc 00b5 4739 6dff b2bc
00000130: 804f ee3b 80d0 a53c 9806 dfbc ecfe 10bd
00000140: 04ec 723c 4e9f 0fbd c060 c7bc 806d 54bd
00000150: e658 a7bc e86a 92bd 75fd a8bd 34a2 6cbc
00000160: 7da7 563d bd33 06bd b891 bd3c 0a67 34bd
00000170: 1a69 9c3c 6aa4 4abd 05a1 c03c 7cf2 01bd
00000180: f28e 24bd ad58 663c 0dc4 6cbc e28c e9bb
00000190: dcc6 603c 9c6b 4abd 38e9 1d3c 1a92 05bd
000001a0: 11dd 3d3d 5ad5 273d 4e2b 8b3d ac1d 64bc
000001b0: f9b4 ebbb 565d 8fbc eb0f b23c ce43 37bd
000001c0: ff40 9fbc 4761 37bd c92d f63c ab00 dbbb
000001d0: cd98 7b3c cca8 783d 3581 823b 22a7 8b3d
000001e0: 3789 193d eafe bb3c 7961 383d 1bf8 273d
000001f0: 4c95 f1bc efcd cc3d cdef 44bd ccbe 92bc
00000200: 81c8 25bd c909 f9bc e497 c1bd c994 03bd
00000210: 2ecb 993c 8e1f 743d de3a 15bc 7fa4 49bd
00000220: 8515 93bd c34c 51bc 73c9 043c f129 c73d
00000230: 9f91 23bc 1eca 3cbd 9da2 ffbc a6c2 a7bb
00000240: 3d56 013d b029 49bb 19a3 8c3c 4fd0 db3c
00000250: 511c 45bd 777e dbbc 7f60 d6bc 211a 083d
00000260: 4031 d33b 94a4 ac3c 575f 1cbd 00e1 513d
00000270: 7783 54ba e38e dfbc 9454 1ebb 38cd c4bc
00000280: d8e6 a3bc 00a8 873d 6f32 9fbc cc90 993b
00000290: 4381 bebd 51a6 193d d409 f1bc 1af0 653d
000002a0: 42f9 1bbc 335e 20bc f29f 89b9 4dfb b73c
000002b0: c082 a1ba 9906 98bc 34f6 07bc f202 013d
000002c0: 7387 00bd 17bb 0dbd 1249 883c 40fe 40bb
000002d0: f04a 3bbb 1cea 9fbc 2aa5 0c3d 0870 cbbc
000002e0: 501a 8abb aa13 f6bc df0b 8bbc 60b0 8e3c
000002f0: 27cc 19bd 70be 02bd e6b1 cdbc 8c81 14bd
00000300: 80c2 62bc ca1f d9bc 2007 213b 80e3 063d
00000310: 8ce7 413c d2f3 8f3c b45d 173d 6006 20bd
00000320: 5cf2 a63c 9c8e 453d 52fd 0f3d b098 ad3b
00000330: b45b 1abd 08a7 a83b 6870 323c 301a a93c
00000340: 0aca d7bc 804a cf3c 8036 d53c 8004 67bc
00000350: e28c adbc f060 3d3c 48b7 063d 42f6 2cbc
00000360: 003e 34b9 a477 1fbd 1a04 14bd 40b1 7e3a
00000370: c6d1 f5bc 1820 063d 18fb 743c 8025 88ba
00000380: b579 19bd 2811 cd3c 088d a63c 902f f83b
00000390: 2cb6 8c3c 78fc d7bb a458 dfbc c037 fe3c
000003a0: 72e8 213d d8b4 22bd 2873 c23c a026 1b3c
000003b0: 00dd 5cbc 244a 5a3c 4499 1ebd 29b1 08bd
000003c0: ff50 80bd 47c1 87bd ee27 8cbd 8099 d63c
000003d0: 7286 0bbd aed9 1ebd a26b e4bb 10de 6abd
000003e0: 403b f13a db36 e4bc fe11 50bc 08e7 0dbd
000003f0: a86e 433c 1012 7dbb edad 11bd 301f bd3c

encoder.0.bias f4 [128]
-0.15421681 -0.072058074 -0.11579652 -0.06865323 -0.16908717 -0.16187203 -0.12755577 -0.042081952
0.33742714 -0.060651444 -0.06787701 -0.0057314434 -0.14117235 -0.1869596 0.022956306 -0.14649788
0.07612295 0.114860006 -0.16789804 -0.08903076 0.06600878 0.010075351 -0.11880556 -0.116247505
0.01654258 -0.0038495404 -0.16912451 -0.08975596 0.081877664 0.2902658 -0.07910429 0.08716821
0.2651176 -0.08235845 -0.04010071 -0.1119579 0.071378574 -0.10356338 0.10432808 0.11275592
0.00067652616 -0.064199984 -0.12832093 -0.110951774 0.08761117 -0.12973325 -0.145902 0.10624459
-0.097345404 -0.11732239 -0.08850324 -0.016702008 -0.120310314 -0.19458929 0.13736133 -0.025655583
0.12428509 -0.060236398 -0.154563 -0.18250225 0.23441386 0.17405446 0.17336978 -0.04047178
0.13834141 -0.013580993 0.08345903 -0.041278392 0.13352248 -0.16327468 -0.0004830047 0.024471844
0.25839958 -0.15774211 0.0057481234 -0.083660476 0.049050633 -0.035516463 0.050800364 -0.0616548
-0.0039797667 -0.019210108 -0.13678123 0.022251418 -0.10169859 -0.005604337 -0.18266538 -0.043796133
0.0051092175 0.02352486 -0.048882965 -0.049117684 -0.09781423 -0.039045054 -0.021983955 0.060576983
-0.12027909 0.13659938 -0.024821445 0.25711805 -0.041922912 -0.18938857 -0.05876773 -0.021363363
0.031480014 0.008912708 0.027740961 -0.13387817 -0.16063778 -0.04503155 0.1455022 -0.11848464
-0.031216545 -0.03561064 0.08739671 -0.07117736 -0.14083035 -0.13109225 -0.069993466 -0.10698221
-0.14587124 -0.05990117 0.052299544 -0.07545744 0.020463904 -0.07981612 -0.0032300393 -0.120216414
00000000: 03eb 1dbe 2f93 93bd ba26 edbd 119a 8cbd
00000010: 3025 2dbe c8c1 25be fb9d 02be 205e 2cbd
00000020: 40c3 ac3e a66d 78bd 1a03 8bbd d5ce bbbb
00000030: 7c8f 10be 5672 3fbe dd0e bc3c 8a03 16be
00000040: 59e6 9b3d b93b eb3d 77ed 2bbe c255 b6bd
00000050: 9c2f 873d 1613 253c 5450 f3bd 2c13 eebd
00000060: 4e84 873c 9248 7cbb fa2e 2dbe f9d1 b7bd
00000070: 7aaf a73d b89d 943e 6e01 a2bd 3f85 b23d
00000080: 7ebd 873e 8cab a8bd a440 24bd 2f4a e5bd
00000090: ee2e 923d 0a19 d4bd f6a9 d53d 93ec e63d
000000a0: e758 313a 487b 83bd 9066 03be af3a e3bd
000000b0: 7c6d b33d cbd8 04be 5567 15be c396 d93d
000000c0: 075d c7bd b946 f0bd 3041 b5bd a6d2 88bc
000000d0: 4165 f6bd 6a42 47be 73a8 0c3e a82b d2bc
000000e0: 2e89 fe3d 71ba 76bd c345 1ebe dfe1 3abe
000000f0: 300a 703e 553b 323e d987 313e bdc5 25bd
00000100: 5fa9 0d3e d082 5ebc 91ec aa3d 8813 29bd
00000110: 1eba 083e 7a31 27be cb3b fdb9 2d79 c83c
00000120: f34c 843e 2687 21be c15a bc3b 2f56 abbd
00000130: 51e9 483d b679 11bd 0b14 503d be89 7cbd
00000140: b468 82bb 845e 9dbc 6110 0cbe 9b48 b63c
00000150: 5a47 d0bd 96a4 b7bb a20c 3bbe 9363 33bd
00000160: 396b a73b 35b7 c03c 8139 48bd a02f 49bd
00000170: d452 c8bd b5ed 1fbd b217 b4bc 921f 783d
00000180: e254 f6bd b5e0 0b3e 5856 cbbc faa4 833e
00000190: 5cb7 2bbd 14ef 41be 6eb6 70bd 3802 afbc
000001a0: 30f1 003d 9b06 123c 0341 e33c 5c17 09be
000001b0: 3b7e 24be 0173 38bd 87fe 143e 13a8 f2bd
000001c0: d7b9 ffbc 76dc 11bd 0cfd b23d 70c5 91bd
000001d0: d535 10be 0c3d 06be bc58 8fbd 7d19 dbbd
000001e0: 455f 15be ee5a 75bd 0c38 563d 6e89 9abd
000001f0: eba3 a73c a276 a3bd 11af 53bb 0634 f6bd

encoder.2.weight f4 [64, 128]
0.013655571 -0.016497372 -0.015382086 -0.009118152 -0.053125508 0.026989758 0.06333412 -0.004147916
-0.21588539 -0.026836766 0.063794315 -0.041111305 -0.075894676 0.092928 -0.1954407 0.039727446
-0.18292919 -0.17280695 0.13578829 0.10909834 -0.16150545 -0.10468032 0.105660014 0.10776098
-0.0529088 0.073271245 -0.002189387 -0.05727903 -0.020630952 -0.2561313 0.03796586 -0.084362514
-0.17785513 0.032103352 0.15332074 0.07243497 -0.0065772682 -0.07095583 -0.3132554 -0.13908757
-0.07493198 -0.053819038 0.096839145 0.02795182 -0.08529078 -0.05560715 -0.043247834 -0.10828371
0.04873942 -0.111759126 0.10125303 -0.20337713 0.08490825 0.039192617 -0.17176917 0.012778988
-0.053038463 -0.050164472 -0.040288106 0.12115428 -0.08834513 -0.25065583 -0.01805818 0.017269034
-0.22072351 0.0152500095 -0.06485748 0.024763646 -0.026352376 0.058915205 -0.041830584 0.010295597
-0.12646897 0.10207063 -0.11987621 0.01701209 -0.0037294498 -0.0020011975 -0.124892816 -0.09897567
-0.12605025 -0.08106122 0.04852364 -0.10742713 0.07320651 0.036560245 0.022141533 -0.10601063
-0.03345541 -0.12060555 -0.12038237 0.06556375 -0.015625978 -0.040312283 0.016451374 -0.050360925
0.09188586 -0.11657993 -0.020769307 -0.13406602 -0.11685565 -0.081708625 0.08513778 -0.10398648
-0.21926284 -0.10495103 -0.011806833 0.01071844 -0.067056775 0.11837376 -0.2342707 -0.019288808
-0.005009849 0.10756686 -0.05182357 -0.090087235 -0.018716272 -0.009563285 0.06378379 0.14320165
0.008144616 -0.15404892 -0.19419625 0.020356191 -0.08247127 0.026518986 0.0486383 -0.08685836
0.067315154 -0.12105947 0.090261295 0.055835642 -0.08260248 -0.029810697 0.018385012 -0.09662902
-0.21018974 -0.0025863876 -0.00092887785 0.03442361 0.0007116138 -0.0052407556 -0.031204786 -0.086158596
-0.1228069 0.09317223 -0.112461306 -0.04256953 -0.030278573 0.07791674 -0.1382134 0.1289837
-0.17385717 -0.10532899 0.047619317 0.00090941956 0.054782674 -0.15054277 0.030153677 -0.0020163604
-0.024869518 -0.1605698 -0.025792677 0.03939948 0.005619107 -0.05349119 0.06338834 -0.0059229224
0.05286628 0.11070076 -0.08800374 -0.12454854 0.160218 0.08376764 0.011420804 0.15848114
0.0061508715 -0.034246244 -0.029157951 0.004662111 -0.005417808 -0.05124883 -0.006938219 -0.017302992
0.07897458 0.02394983 0.051388443 -0.027825708 -0.07645091 -0.083465084 0.012833804 0.18489526
0.19407864 0.058785364 0.009892373 -0.037619628 -0.124485396 0.13000514 0.10504434 -0.03541457
-0.0139658805 0.20344172 -0.13417529 -0.08322839 -0.053464036 0.061199896 0.050615523 -0.1073624
-0.060083207 0.09369218 -0.0055302014 -0.07939899 -0.10264891 -0.00989544 0.011037759 0.16277717
-0.25011382 0.1270026 -0.028531693 -0.11027537 0.05890265 -0.09875582 -0.04700392 0.20643368
0.06341152 -0.05236119 -0.17486252 -0.13077348 0.0987443 -0.095035054 -0.035235196 0.043411665
0.14989676 0.077181205 -0.056595437 -0.074680574 -0.03741699 -0.25753576 -0.094489165 0.09745493
-0.21329777 0.08341903 0.0005772284 -0.059268206 0.06343808 -0.06698045 4.037555e-05 -0.15179466
-0.039853822 0.09793713 0.03396101 -0.13864934 0.0014266421 0.078042306 0.0975444 -0.034000468
00000000: 9ebb 5f3c 7f25 87bc 2505 7cbc 4d64 15bc
00000010: 229a 59bd a019 dd3c 52b5 813d 3eeb 87bb
00000020: 0f11 5dbe c7d8 dbbc 98a6 823d 5464 28bd
00000030: ab6e 9bbd 0951 be3d 9b21 48be 3fb9 223d
00000040: ca51 3bbe 4ef4 30be 160c 0b3e f36e df3d
00000050: af61 25be a362 d6bd 4764 d83d cab1 dc3d
00000060: e6b6 58bd 3c0f 963d d27b 0fbb 6b9d 6abd
00000070: 3e02 a9bc a423 83be 1782 1b3d 41c6 acbd
00000080: a81f 36be ce7e 033d 1d00 1d3e c958 943d
00000090: 2086 d7bb 4a51 91bd 0363 a0be f96c 0ebe
000000a0: f075 99bd 5a71 5cbd 9a53 c63d 37fb e43c
000000b0: efac aebd 53c4 63bd a424 31bd dac3 ddbd
000000c0: fca2 473d f8e1 e4bd c05d cf3d 1842 50be
000000d0: 60e4 ad3d 7088 203d 42e4 2fbe f65e 513c
000000e0: dc3e 59bd 4379 4dbd 2405 25bd bc1f f83d
000000f0: 4bee b4bd f655 80be c0ee 93bc ca77 8d3c
00000100: 5805 62be 2ddb 793c 00d4 84bd 21dd ca3c
00000110: f0e0 d7bc 1251 713d 8c56 2bbd ddae 283c
00000120: 1581 01be 680a d13d a981 f5bd f05c 8b3c
00000130: c969 74bb 8626 03bb cec7 ffbd c2b3 cabd
00000140: 5113 01be 6d03 a6bd b9c0 463d c102 dcbd
00000150: 4bed 953d 32c0 153d 2962 b53c 1a1c d9bd
00000160: 8a08 09bd 0b00 f7bd 088b f6bd 4a46 863d
00000170: 0d02 80bc 7e1e 25bd 08c5 863c 4247 4ebd
00000180: a72e bc3d 75c1 eebd 6524 aabc 9a48 09be
00000190: 0452 efbd da56 a7bd b75c ae3d ddf6 d4bd
000001a0: 7086 60be 91f0 d6bd 7271 41bc 659c 2f3c
000001b0: 1055 89bd f16d f23d a9e4 6fbe 9003 9ebc
000001c0: a929 a4bb 044c dc3d f444 54bd a87f b8bd
000001d0: de52 99bc 53af 1cbc 13a1 823d 74a3 123e
000001e0: ff70 053c 00bf 1dbe 62db 46be 07c2 a63c
000001f0: b2e6 a8bd 583e d93c f438 473d cce2 b1bd
00000200: 87dc 893d 07ee f7bd eada b83d eab3 643d
00000210: 7d2b a9bd 9035 f4bc 2a9c 963c 70e5 c5bd
00000220: fb3b 57be 6280 29bb f07f 73ba c5ff 0c3d
00000230: 988b 3a3a a5ba abbb 2ea1 ffbc eb73 b0bd
00000240: 2f82 fbbd 15d1 be3d 1d52 e6bd 635d 2ebd
00000250: c50a f8bc d092 9f3d d087 0dbe 4e14 043e
00000260: 9d07 32be bab6 d7bd 790c 433d 1d66 6e3a
00000270: cc63 603d e227 1abe d804 f73c ea24 04bb
00000280: 29bb cbbc 696c 24be 2a4b d3bc 5961 213d
00000290: 7c20 b83b 9419 5bbd bfd1 813d 1315 c2bb
000002a0: 508a 583d 14b7 e23d 4e3b b4bd 4e13 ffbd
000002b0: 3010 243e 5e8e ab3d 531e 3b3c e148 223e
000002c0: 408d c93b ca45 0cbd a8dc eebc 9fc4 983b
000002d0: de87 b1bb 4bea 51bd 005a e3bb 01bf 8dbc
000002e0: 6dbd a13d 6f32 c43c b07c 523d bdf2 e3bc
000002f0: 4b92 9cbd beef aabd e044 523c 2f55 3d3e
00000300: 8dbc 463e ecc8 703d 9f13 223c 0a17 1abd
00000310: 33f2 febd 1120 053e 7d21 d73d de0e 11bd
00000320: 26d1 64bc 0753 503e 3f65 09be a573 aabd
00000330: 1bfd 5abd beac 7a3d 3952 4f3d d1e0 dbbd
00000340: cf19 76bd b0e1 bf3d b136 b5bb f09b a2bd
00000350: 9739 d2bd 7c20 22bc b7d7 343c 0faf 263e
00000360: eb0e 80be f80c 023e 4cbb e9bc 0ed8 e1bd
00000370: e843 713d 7e40 cabd 2f87 40bd 5a63 533e
00000380: e6dd 813d b078 56bd 290f 33be 7ce9 05be
00000390: 743a ca3d bda1 c2bd c852 10bd 6ed0 313d
000003a0: 897e 193e 2e11 9e3d 9ed0 67bd 21f2 98bd
000003b0: 8f42 19bd badb 83be 8983 c1bd 7396 c73d
000003c0: bb6a 5abe 99d7 aa3d 2451 173a 38c3 72bd
000003d0: d3eb 813d 0c2d 89bd eb58 2938 0f70 1bbe
000003e0: c33d 23bd 4393 c83d b31a 0b3d 18fa 0dbe
000003f0: 2afe ba3a a5d4 9f3d 5cc5 c73d 1344 0bbd

encoder.2.bias f4 [64]
-0.10274538 -0.0014587385 0.006230318 -0.21109983 -0.089350745 0.11367037 0.21794401 0.056832954
-0.09715906 0.011070197 -0.10923357 -0.08854777 -0.111665346 -0.06626803 0.015508735 -0.06582536
-0.110868186 -0.10073646 -0.06908844 0.059946846 -0.096280545 0.14328955 0.0026680904 -0.13617118
-0.108376734 0.033212595 -0.028235357 -0.02810143 -0.047127303 -0.034284007 -0.070060946 0.087822914
-0.025009884 -0.027519748 0.018262139 -0.00093771145 -0.053549297 0.031292304 0.13505748 0.1645914
-0.10823317 -0.08384405 0.04644363 0.21801999 0.18235843 -0.009370697 -0.12478415 -0.043268386
0.02710279 -0.044604525 -0.099313565 0.12701096 0.0844306 -0.07957417 -0.13156007 -0.09012607
-0.04610459 0.106505305 0.11815796 -0.061474055 -0.11264475 0.05057928 -0.056442037 0.1435475
00000000: 2b6c d2bd 2433 bfba b227 cc3b 8e2a 58be
00000010: 86fd b6bd 03cc e83d b72c 5f3e acc9 683d
00000020: 54fb c6bd c65f 353c dab5 dfbd 8958 b5bd
00000030: cdb0 e4bd 88b7 87bd 5918 7e3c 72cf 86bd
00000040: dc0e e3bd eb4e cebd 3d7e 8dbd d38a 753d
00000050: bc2e c5bd 7fba 123e 21db 2e3b 7570 0bbe
00000060: 9ff4 ddbd ee09 083d d64d e7bc f834 e6bc
00000070: 8f08 41bd 636d 0cbd 1d7c 8fbd 80dc b33d
00000080: 87e1 ccbc 1871 e1bc 7b9a 953c c0d0 75ba
00000090: 8256 5bbd 5c2c 003d 824c 0a3e a68a 283e
000000a0: 5aa9 ddbd 6eb6 abbd ad3b 3e3d a240 5f3e
000000b0: 2bbc 3a3e 8d87 19bc d58e ffbd 313a 31bd
000000c0: ac06 de3c 3cb3 36bd e964 cbbd 290f 023e
000000d0: f3e9 ac3d c8f7 a2bd afb7 06be 0494 b8bd
000000e0: 2bd8 3cbd 741f da3d cdfc f13d 38cc 7bbd
000000f0: 4ab2 e6bd 382c 4f3d c42f 67bd 1efe 123e

encoder.4.weight f4 [3, 64]
0.104561195 -0.002035722 -0.12017825 0.03861416 0.08334636 0.12133918 -0.08598523 -0.13422324
-0.107485145 0.05768314 -0.07065274 -0.047944006 0.06047635 0.1687928 -0.055894423 -0.09108553
0.11444672 0.11816478 -0.029720308 0.19547756 -0.020654453 -0.123716384 -0.18569331 0.027282562
0.020780226 -0.007514562 0.15382367 -0.06673923 0.071396306 -9.291736e-05 0.03366712 -0.05956448
-0.020538878 0.017278565 0.17487273 -0.07065595 0.056320466 -0.08386263 -0.03130472 0.084852345
-0.04035894 0.08059725 0.057450578 -0.1907905 0.005761927 0.1734126 0.021409255 -0.016967474
-0.061244532 0.045626342 0.020290036 -0.07652077 -0.0043008737 -0.00033898774 0.06531961 -0.022992542
-0.06714224 -0.05559741 0.14824644 -0.08186707 0.07707288 0.08694728 -0.049858518 -0.048967715
-0.1114042 0.10916376 -0.09112445 0.07256745 -0.001016665 0.03011904 -0.0050610593 -0.07875744
-0.11712975 0.05290482 0.09622822 0.04089166 0.07819876 -0.040800076 0.025288526 -0.019937567
-0.066755846 -0.056496035 -0.20795648 0.06505626 -0.020159733 -0.02133189 0.05590235 -0.03813136
0.010652081 -0.064697996 -0.12806588 -0.03090677 -0.06210422 0.08851042 0.07516652 0.16300555
0.079424635 -0.026476044 -0.0019582997 -0.010424174 -0.022897998 0.034601156 0.1269177 0.106802344
0.014789889 -0.07240037 0.16184658 0.033605848 -0.055919006 -0.098314516 0.05486457 -0.19045599
0.038394038 -0.06562277 -0.10657771 0.097146295 0.16310516 0.09858436 -0.0073605813 -0.074290186
-0.13864397 0.19080281 0.13040677 0.0018292847 0.06790902 0.048711594 0.086434655 -0.108701035
0.025515258 -0.12776648 0.019552706 -0.1007971 0.121383905 0.11775407 0.104510576 -0.019654816
0.07392537 -0.07799252 0.00014430842 0.03598183 0.018261973 -0.036879674 -0.014282798 -0.0054231184
-0.0910325 -0.07296864 -0.043873515 0.03860442 -0.040031273 0.12815632 -0.083026335 -0.056189757
0.043130875 -0.10345928 -0.12923281 0.065650664 0.083862744 -0.029638568 -0.0926269 -0.08008393
-0.109897025 0.011932886 -0.040590845 0.023811838 0.104530215 0.025372269 0.17699984 0.16112068
-0.07106973 0.07018064 0.054657698 0.15369545 0.1313298 -0.012675006 0.08705761 0.034048073
0.006517453 -0.036342744 0.060709815 0.10758506 -0.15193327 0.060297474 -0.012932669 0.041917745
-0.29583377 -0.17011128 0.050318036 0.09386485 -0.0967655 0.21085659 -0.056048777 0.1301058
00000000: 2e24 d63d bf69 05bb 0420 f6bd e229 1e3d
00000010: 7fb1 aa3d ad80 f83d 0619 b0bd d171 09be
00000020: 2c21 dcbd 2845 6c3d 62b2 90bd ef60 44bd
00000030: 0db6 773d 05d8 2c3e 8df1 64bd 0d8b babd
00000040: 0b63 ea3d 6000 f23d 0178 f3bc 452b 483e
00000050: 8733 a9bc 045f fdbd 6326 3ebe ae7f df3c
00000060: 4b3b aa3c b73c f6bb f483 1d3e 94ae 88bd
00000070: 3a38 923d a1dc c2b8 89e6 093d e2f9 73bd
00000080: 2641 a8bc c78b 8d3c d611 333e 11b4 90bd
00000090: 4ab0 663d 2cc0 abbd 6139 00bd 11c7 ad3d
000000a0: 6a4f 25bd 2c10 a53d 4c51 6b3d 965e 43be
000000b0: 8cce bc3b 1393 313e 7662 af3c 5fff 8abc
000000c0: 8cdb 7abd b0e2 3a3d 4a37 a63c ecb6 9cbd
000000d0: 58ee 8cbb 2aba b1b9 4ac6 853d db5a bcbc
000000e0: df81 89bd 1cba 63bd eacd 173e eca9 a7bd
000000f0: 63d8 9d3d 6a11 b23d 7238 4cbd 5f92 48bd
00000100: e327 e4bd 4091 df3d 759f babd 3e9e 943d
00000110: 9e41 85ba 34bc f63c 3ed7 a5bb 954b a1bd
00000120: b9e1 efbd b9b2 583d 4d13 c53d 037e 273d
00000130: ac26 a03d fb1d 27bd e229 cf3c 1c54 a3bc
00000140: 4ab7 88bd 6368 67bd 8bf2 54be 373c 853d
00000150: 0626 a5bc 37c0 aebc ddf9 643d a12f 1cbd
00000160: 1186 2e3c 6280 84bd b423 03be 3230 fdbc
00000170: ff60 7ebd f344 b53d e8f0 993d edea 263e
00000180: 62a9 a23d 4ae4 d8bc d156 00bb 28ca 2abc
00000190: 9594 bbbc f1b9 0d3d b7f6 013e 30bb da3d
000001a0: 4a51 723c a546 94bd 1cbb 253e 49a6 093d
000001b0: 540b 65bd 1f59 c9bd acb9 603d e506 43be
000001c0: 1143 1d3d 3b65 86bd 6a45 dabd a3f4 c63d
000001d0: 0a05 273e 99e6 c93d 0831 f1bb 7425 98bd
000001e0: aff8 0dbe d061 433e 5a89 053e 9cc4 ef3a
000001f0: e213 8b3d cf85 473d a704 b13d a69e debd
00000200: 6005 d13c 37d5 02be ff2c a03c b66e cebd
00000210: 2098 f83d 0c29 f13d a409 d63d 2303 a1bc
00000220: 2f66 973d 8bba 9fbd 7f51 1739 af61 133d
00000230: 229a 953c 240f 17bd 6602 6abc 6ab4 b1bb
00000240: 3f6f babd 9570 95bd b7b4 33bd ab1f 1e3d
00000250: d5f7 23bd 693b 033e b609 aabd 3b27 66bd
00000260: 00aa 303d 76e2 d3bd 9b55 04be db73 863d
00000270: 3bc0 ab3d 95cc f2bc 2cb3 bdbd 0b03 a4bd
00000280: b111 e1bd 2782 433c 9642 26bd 0b11 c33c
00000290: f013 d63d 81d9 cf3c 723f 353e d2fc 243e
000002a0: 028d 91bd deba 8f3d c0e0 5f3d 5762 1d3e
000002b0: 527b 063e d4aa 4fbc 434b b23d fe75 0b3d
000002c0: 5c90 d53b 21dc 14bd dbaa 783d 8e55 dc3d
000002d0: 6594 1bbe 7cfa 763d 8ce3 53bc f1b1 2b3d
000002e0: 8677 97be a731 2ebe 491a 4e3d 373c c03d
000002f0: fe2c c6bd caea 573e 6793 65bd 743a 053e

encoder.4.bias f4 [3]
-0.0060682534 0.03481157 -0.022309056
00000000: 33d8 c6bb 9496 0e3d 7bc1 b6bc

decoder.0.weight f4 [64, 3]
0.060511984 0.6075045 -0.4616277 0.504445 -0.11431144 0.21231478 0.49947417 -0.30945852
-0.2874147 -0.3542206 -0.5257811 -0.043544207 -0.2579495 0.09960907 0.14456436 0.077541426
-0.4009545 0.20270881 -0.13375935 -0.08311123 -0.038790703 0.022692086 -0.36419764 0.39871362
0.24982288 -0.463303 0.46795997 -0.2297256 -0.57240057 0.31551167 -0.12010325 0.10611124
-0.39631948 -0.19541173 0.4580507 -0.10682045 0.11182967 -0.40652883 0.2011319 0.017204748
-0.19348472 -0.17594922 0.46412045 -0.02349737 -0.0952834 -0.0039258343 -0.07718054 -0.06706929
0.44579393 -0.52990735 -0.14952332 -0.043456364 0.3561652 0.058303826 -0.10480204 -0.29047424
0.0658517 -0.19365403 -0.010240498 -0.11233927 0.11401808 0.072223075 -0.0039384845 -0.24274805
0.17491364 0.020560913 0.24114904 0.25773054 -0.367341 0.35153046 -0.1706571 -0.38545817
0.30651253 0.30299306 -0.28121984 0.56268907 0.14445612 -0.15401435 0.4190282 -0.07165768
-0.3814108 0.04077054 0.033872675 -0.30502832 -0.55263484 -0.14135937 -0.18095791 0.40605468
0.14417525 -0.32033107 -0.17353927 -0.5751179 0.0761339 0.057985384 0.27092072 -0.43098274
0.4588689 0.00026541034 -0.066302635 -0.2665923 0.29093072 0.26881006 0.4526824 0.30728
0.4957067 0.58493394 -0.23994407 0.26756513 -0.28336754 -0.06906677 -0.3042852 -0.07649889
0.09963511 -0.41549367 -0.32462388 -0.4518283 -0.10642987 0.3208661 -0.44409743 -0.3836675
0.5555482 0.33454746 0.4236147 -0.28738198 -0.47081393 0.20702714 0.17950124 -0.20910145
0.31407562 0.38060495 0.31346568 0.30568394 -0.31074733 -0.27721834 -0.34398222 -0.3694206
-0.32998177 -0.38037518 -0.013714159 -0.41910762 0.30417567 -0.37120306 -0.16152678 -0.17964035
0.52018774 -0.4820124 0.18437038 0.58726543 0.18833795 -0.17204471 0.03129347 -0.5979781
0.3990254 0.39502183 -0.44839886 -0.49229702 -0.021159664 -0.45493916 0.320633 0.104640044
-0.14566284 -0.07978058 -0.5643977 -0.36520344 -0.4332414 0.027375724 -0.1007659 -0.100960486
0.29513106 -0.03338018 -0.11898033 0.12271913 -0.4123309 -0.43840304 -0.43134373 -0.10983503
-0.10962223 0.42919084 -0.24287812 0.036769006 0.30190414 -0.19610165 -0.368126 0.37218353
-0.37105265 0.18124466 0.29192913 -0.1056312 0.3251621 -0.034285676 0.28010938 0.29953554
00000000: 6adb 773d 6a85 1b3f 775a ecbe 4f23 013f
00000010: 1e1c eabd 0c69 593e 14bb ff3e 5971 9ebe
00000020: 0528 93be 675c b5be 9799 06bf 695b 32bd
00000030: f511 84be d7ff cb3d ae08 143e 0ace 9e3d
00000040: e949 cdbe e692 4f3e 36f8 08be 3836 aabd
00000050: 00e3 1ebd c1e4 b93c 1d78 babe 3124 cc3e
00000060: 92d1 7f3e 0d36 edbe 7398 ef3e 303d 6bbe
00000070: d888 12bf bf8a a13e b1f8 f5bd da50 d93d
00000080: 63ea cabe 031a 48be 9f85 ea3e aec4 dabd
00000090: f406 e53d 8c24 d0be 85f5 4d3e f9f0 8c3c
000000a0: dc20 46be 082c 34be 32a1 ed3e 8e7d c0bc
000000b0: f123 c3bd 49a4 80bb d510 9ebd a05b 89bd
000000c0: 1a3f e43e 02a8 07bf a41c 19be 4dff 31bd
000000d0: 495b b63e fecf 6e3d 74a2 d6bd 0ab9 94be
000000e0: 42dd 863d 3e4d 46be c3c7 27bc 2212 e6bd
000000f0: 5082 e93d b1e9 933d 670e 81bb f292 78be
00000100: 901c 333e 5c6f a83c c6ef 763e 42f5 833e
00000110: 1f14 bcbe cdfb b33e bcc0 2ebe c65a c5be
00000120: 36ef 9c3e e821 9b3e 0cfc 8fbe 640c 103f
00000130: 4eec 133e f0b5 1dbe dd8a d63e 43c1 92bd
00000140: 4748 c3be 02ff 263d 13be 0a3d ac2c 9cbe
00000150: 7a79 0dbf 83c0 10be 084d 39be 66e6 cf3e
00000160: ada2 133e 6f02 a4be 47b4 31be ed3a 13bf
00000170: 17ec 9b3d 1582 6d3d 1fb6 8a3e c5a9 dcbe
00000180: ddf0 ea3e c626 8b39 adc9 87bd c97e 88be
00000190: dff4 943e 79a1 893e fdc5 e73e ce53 9d3e
000001a0: 45cd fd3e 3bbe 153f e6b3 75be 4cfe 883e
000001b0: 8d15 91be e172 8dbd 45cb 9bbe 73ab 9cbd
000001c0: 7e0d cc3d 96bb d4be 1a35 a6be 0a56 e7be
000001d0: e7f7 d9bd 9048 a43e bd60 e3be 1170 c4be
000001e0: 6838 0e3f ce49 ab3e 07e4 d83e bb23 93be
000001f0: 860e f1be ecfe 533e 2ccf 373e b11e 56be
00000200: 85ce a03e a7de c23e 937e a03e 9b82 9c3e
00000210: 461a 9fbe 90ef 8dbe 701e b0be b224 bdbe
00000220: 5ff3 a8be 89c0 c2be 5ab1 60bc 4695 d6be
00000230: eabc 9b3e 540e bebe 4767 25be a4f3 37be
00000240: 062b 053f 54ca f6be 97cb 3c3e 0757 163f
00000250: aadb 403e 7d2c 30be 952d 003d 1815 19bf
00000260: 0f4d cc3e 4d40 ca3e 8994 e5be 5b0e fcbe
00000270: 0857 adbc c9ed e8be 022a a43e 854d d63d
00000280: a428 15be 0064 a3bd 5e7c 10bf f2fb babe
00000290: d1d1 ddbe 0e43 e03c 5a5e cebd 5fc4 cebd
000002a0: 6b1b 973e a8b9 08bd f6ab f3bd 2b54 fb3d
000002b0: 091d d3be 5d76 e0be 16d9 dcbe 30f1 e0bd
000002c0: 9f81 e0bd e7be db3e 0bb5 78be 199b 163d
000002d0: 2e93 9a3e dfce 48be 037b bcbe d78e be3e
000002e0: 9dfa bdbe 3398 393e bc77 953e 2c55 d8bd
000002f0: a67b a63e 236f 0cbd 7f6a 8f3e b95c 993e

decoder.0.bias f4 [64]
-0.27183238 -0.5412406 0.48786405 -0.4044202 0.17049597 0.54174906 -0.4429944 -0.44873047
-0.1292356 0.22416751 0.3869038 -0.6748265 0.54535216 -0.027407583 -0.33252355 -0.002737553
0.067057535 -0.4868422 0.295403 -0.2395057 -0.5350325 -0.028353577 -0.020988485 0.4073669
0.30084458 0.0017683544 -0.56289655 -0.5169302 -0.43339506 -0.57171917 0.15296404 0.024389412
-0.55246854 -0.344438 -0.34677806 0.27638716 0.1775001 -0.50704324 -0.5528582 -0.15793113
0.060972795 -0.28746736 -0.27947068 -0.058083534 -0.077391624 -0.12178234 0.0631886 0.4532308
0.4676232 0.41242692 0.1830073 0.4193609 -0.17670012 0.54426754 0.22986154 0.10217093
0.37044823 0.27237257 -0.44873685 0.12556365 -0.60102254 -0.14432998 -0.21387213 -0.2278244
00000000: 9d2d 8bbe be8e 0abf 51c9 f93e 2a10 cfbe
00000010: 7f96 2e3e 11b0 0a3f 29d0 e2be 00c0 e5be
00000020: 5656 04be 2b8c 653e 4118 c63e 6ec1 2cbf
00000030: 339c 0b3f de85 e0bc 8740 aabe 8568 33bb
00000040: 7655 893d 6143 f9be 103f 973e fb40 75be
00000050: e4f7 08bf c345 e8bc 0bf0 abbc 6592 d03e
00000060: 4d08 9a3e 21c8 e73a fd19 10bf 8a55 04bf
00000070: f5e5 ddbe 305c 12bf 9ba2 1c3e 4ecc c73c
00000080: 946e 0dbf 2d5a b0be e58c b1be 9e82 8d3e
00000090: 96c2 353e 96cd 01bf 1d88 0dbf b3b8 21be
000000a0: 9cbe 793d ec2e 93be c816 8fbe 00e9 6dbd
000000b0: 807f 9ebd 0569 f9bd 0669 813d de0d e83e
000000c0: 4f6c ef3e 9f29 d33e 4466 3b3e 79b6 d63e
000000d0: e0f0 34be 1e55 0b3f d360 6b3e fe3e d13d
000000e0: 64ab bd3e 6b74 8b3e d6c0 e5be c293 003e
000000f0: 9ddc 19bf 3dcb 13be 4c01 5bbe cd4a 69be

decoder.2.weight f4 [128, 64]
0.078276284 0.18921873 0.29236954 -0.038657457 0.068053216 0.12234593 -0.07414739 -0.080442615
0.0068073473 0.06898253 0.15423608 -0.05757695 0.19442613 0.086470984 0.066120885 0.10266687
0.08151156 -0.20721632 0.11099384 -0.03315061 0.00082342856 -0.1341906 0.20135859 0.29065624
0.20935379 0.14006366 0.0047155777 0.05936847 -0.23926608 0.00042399496 0.07788177 0.14347827
0.11243325 -0.25590953 -0.21728976 0.13144341 -0.011318159 -0.03074289 -0.008900416 0.2410996
0.011147594 -0.2158806 -0.036042508 -0.009345353 -0.20817102 -0.2125944 0.0020638278 -0.05528599
0.29811585 0.31751335 0.16910866 0.1460543 -0.04197673 0.24963088 -0.061362922 0.07682348
0.26315728 0.026914446 -0.17743045 0.24272683 0.04353629 0.136757 -0.012921376 -0.19940059
0.057277825 0.06437365 0.15993342 -0.3447332 0.24344549 0.08941471 0.039572313 -0.13697976
0.059134077 0.075208336 0.12189603 -0.02392297 0.17780812 0.08157869 -0.16697197 -0.12248674
-0.017849075 -0.01755214 0.10401126 0.0072936965 0.09024045 0.11044833 -0.17041706 -0.032209076
0.038110886 0.08069066 -0.029587373 -0.10118533 -0.12569974 -0.058549184 0.005260975 0.022478811
0.08499247 0.009357848 -0.4014499 -0.12833034 -0.027332777 -0.10579626 -0.13994017 0.032028947
-0.27789706 -0.08725384 0.017684745 -0.15807875 -0.4650393 -0.248298 -0.023967894 0.2929808
0.07105332 -0.023942761 -0.11178268 -0.032313325 0.055603962 0.11977743 -0.6106893 0.14693348
0.057854958 0.099793755 -0.022750348 -0.092035666 -0.07309748 -0.070354834 -0.39326173 0.07237925
-0.28737056 0.06343706 -0.032808807 -0.1921864 0.18621083 -0.021677982 -0.015468329 -0.010590744
-0.47242358 -0.12045536 0.08003857 -0.1627059 -0.08531133 0.0025188162 0.007831739 -0.009129144
-0.11035405 -0.17412731 0.07543432 0.05744566 0.09191826 0.1145196 -0.16278742 0.12215458
0.1560763 0.13391496 -0.15187049 0.041816227 -0.15245934 -0.08765967 0.01817383 -0.107288726
0.013966511 -0.06968324 -0.09128854 0.0046054884 0.10678887 -0.071327865 -0.060086776 -0.04789816
0.09075322 -0.40665466 -0.5313688 0.00028086329 0.11537566 0.044697043 -0.8921831 0.014334817
-0.052095775 0.0040083313 -0.8155077 0.16224498 -0.022629686 0.02201958 -0.02924616 0.034912236
0.16291152 -0.033954576 -0.07349657 0.06499121 0.08275888 -0.18485408 -0.11024087 0.09132321
-0.16645749 -0.101769336 -0.10742269 0.0034820288 0.037273817 -0.04201246 -0.046526253 0.0017795919
0.030703858 -0.037070308 -0.015878296 -0.023357503 0.077432975 0.04945698 -0.06332825 0.062421948
0.021147432 0.05239854 -0.008471936 -0.05440332 0.007935002 -0.023418274 -0.0010973779 0.06615267
-0.09481762 -0.024489993 0.012817249 0.027959988 -0.06993297 0.094181746 -0.08007023 -0.0353976
-0.033018127 -0.037457082 0.07502868 0.06436747 -0.047655586 0.09284213 -0.048197106 0.08194198
-0.107364245 -0.00026245415 -0.006445028 -0.077287994 0.104788005 0.062626004 -0.11265562 -0.103362
0.04948225 -0.05502798 -0.12143059 -0.088579684 -0.0540123 -0.11321153 0.04143473 -0.08520776
-0.030560935 -0.13637227 0.0060971007 -0.027922215 -0.03260237 0.05134843 -0.07425655 -0.073738605
00000000: 514f a03d 8ec2 413e 76b1 953e 4857 1ebd
00000010: 7c5f 8b3d 8190 fa3d 96da 97bd 19bf a4bd
00000020: 2b10 df3b b646 8d3d 10f0 1d3e cfd5 6bbd
00000030: a517 473e b317 b13d 636a 873d 0243 d23d
00000040: 88ef a63d 8430 54be bd50 e33d efc8 07bd
00000050: 5bdb 573a 4369 09be f230 4e3e e5d0 943e
00000060: d760 563e d96c 0f3e 2285 9a3b 5a2c 733d
00000070: 2b02 75be a44b de39 7a80 9f3d f8eb 123e
00000080: 6743 e63d 9306 83be 3581 5ebe 1a99 063e
00000090: cd6f 39bc 83d8 fbbc 0dd3 11bc d0e2 763e
000000a0: 66a4 363c ce0f 5dbe 4fa1 13bd 401d 19bc
000000b0: c92a 55be 59b2 59be 4941 073b 9073 62bd
000000c0: a4a2 983e 1c91 a23e d22a 2d3e 428f 153e
000000d0: cbef 2bbd 3d9f 7f3e b057 7bbd a155 9d3d
000000e0: 8dbc 863e af7b dc3c 54b0 35be 628d 783e
000000f0: 1c53 323d 070a 0c3e 2eb4 53bc ab2f 4cbe
00000100: 279c 6a3d 55d6 833d 96c5 233e df80 b0be
00000110: c649 793e 0f1f b73d 9416 223d 6c44 0cbe
00000120: 9336 723d d406 9a3d a0a4 f93d 1bfa c3bc
00000130: 5513 363e ba12 a73d b3fa 2abe 54da fabd
00000140: 3938 92bc 81c9 8fbc db03 d53d f6ff ee3b
00000150: fccf b83d bc32 e23d cf81 2ebe aaed 03bd
00000160: 291a 1c3d 2541 a53d 3861 f2bc 413a cfbd
00000170: 6fb7 00be 45d1 6fbd 4264 ac3b 7c25 b83c
00000180: 8810 ae3d a951 193c d78a cdbe 0769 03be
00000190: fde8 dfbc b6ab d8bd 7a4c 0fbe c930 033d
000001a0: 8648 8ebe 24b2 b2bd 99df 903c 65df 21be
000001b0: a219 eebe d541 7ebe 5158 c4bc 9401 963e
000001c0: 6784 913d 9c23 c4bc 51ee e4bd fa5a 04bd
000001d0: fbc0 633d df4d f53d 2256 1cbf bb75 163e
000001e0: 52f9 6c3d ab60 cc3d f05e babc 327d bcbd
000001f0: 22b4 95bd 3216 90bd 9a59 c9be 923b 943d
00000200: 3c22 93be 4aeb 813d 8762 06bd 83cc 44be
00000210: 0dae 3e3e 0696 b1bc e06e 7dbc cd84 2dbc
00000220: 81e1 f1be 4db1 f6bd 43eb a33d 609c 26be
00000230: b5b7 aebd b912 253b b250 003c 6892 15bc
00000240: 4e01 e2bd 6e4e 32be 4f7d 9a3d 244c 6b3d
00000250: a43f bc3d 4189 ea3d bfb1 26be 2e2c fa3d
00000260: 77d2 1f3e 0121 093e f083 1bbe 7e47 2b3d
00000270: 4d1e 1cbe ea86 b3bd 49e1 943c 31ba dbbd
00000280: cbd3 643c 16b6 8ebd 7cf5 babd a3e9 963b
00000290: 20b4 da3d 5814 92bd 8d1d 76bd dc30 44bd
000002a0: d3dc b93d 0a35 d0be c907 08bf d540 9339
000002b0: 134a ec3d 3f14 373d 1d66 64bf 95dc 6a3c
000002c0: 6162 55bd 5258 833b 1dc5 50bf 8c23 263e
000002d0: e461 b9bc 6862 b43c a595 efbc 2200 0f3d
000002e0: 47d2 263e f413 0bbd 5f85 96bd 1d1a 853d
000002f0: 7d7d a93d 634a 3dbe f7c5 e1bd aa07 bb3d
00000300: d573 2abe 716c d0bd 6d00 dcbd c032 643b
00000310: 6eac 183d 4215 2cbd 5092 3ebd 3241 e93a
00000320: a886 fb3c 09d7 17bd 3313 82bc 3c58 bfbc
00000330: 2e95 9e3d 6793 4a3d 3eb2 81bd 28ae 7f3d
00000340: 613d ad3c da9f 563d e0cd 0abc 04d6 5ebd
00000350: d001 023c aed7 bfbc e4d5 8fba 0d7b 873d
00000360: be2f c2bd 3d9f c8bc 70ff 513c 580c e53c
00000370: 0439 8fbd 5ce2 c03d dcfb a3bd 13fd 10bd
00000380: 043e 07bd 996c 19bd a3a8 993d 18d3 833d
00000390: 8132 43bd 0424 be3d 546a 45bd 32d1 a73d
000003a0: c9e1 dbbd 009a 89b9 d030 d3bb 2b49 9ebd
000003b0: 189b d63d 1042 803d fdb7 e6bd 75af d3bd
000003c0: e6ad 4a3d 0565 61bd 9ab0 f8bd 4469 b5bd
000003d0: 003c 5dbd 72db e7bd 77b7 293d 6881 aebd
000003e0: ed5a fabc 2ca5 0bbe 30ca c73b 21bd e4bc
000003f0: 108a 05bd bb52 523d d113 98bd 4404 97bd

decoder.2.bias f4 [128]
0.21134108 0.08901915 0.2001624 0.02621862 0.11669097 0.031887412 -0.00091453374 -0.11680792
-0.07076325 0.0024736917 -0.07082792 -0.0054996484 0.014001152 -0.03877081 -0.011548835 -0.027793491
-0.10947162 -0.13269089 0.03165374 0.0772629 -0.020633489 0.031677052 -0.038346674 -0.08298935
-0.06150454 -0.12422787 -0.16918455 -0.050959438 -0.018098952 -0.121882625 -0.12943867 0.05594379
-0.06388489 -0.08074666 0.03789838 -0.07393186 0.08301044 -0.010037478 0.04067227 -0.028126217
0.050717365 -0.051737644 -0.08211597 0.0043650176 -0.049678583 -0.14861773 0.053827796 0.02236172
-0.03235025 0.013885177 0.13049239 0.18293867 -0.16286804 -0.10963057 -0.06528694 -0.07313315
0.06850109 -0.029352656 -0.1123128 0.06410839 -0.14685616 -0.011045465 0.051128328 -0.018823907
-0.026951952 0.0947497 -0.0791905 -0.03352401 -0.044810336 0.0036752766 0.052546386 -0.08268822
-0.090267375 -0.0271181 -0.027487528 0.046763375 0.065790914 0.11561671 0.039035942 0.05194007
-0.08426902 -0.053730782 0.041210003 0.054769937 -0.12073433 0.043982204 0.010164491 -0.050791547
-0.05480576 -0.03042652 -0.08159398 -0.051961582 0.09519988 -0.008812436 -0.065421246 0.0027964916
-0.04829831 -0.00020356514 0.16962366 0.032736737 -0.054820195 0.025445696 0.018023297 -0.002704029
-0.009511222 -0.03874604 0.042260688 -0.035442263 -0.074945934 -0.04401173 -0.17148052 0.085000716
-0.11234731 -0.028857587 0.019131785 -0.015623826 -0.13963977 0.013657772 0.21016055 -0.066447064
0.07048812 -0.10870353 -0.10202807 -0.04140657 -0.038319167 -0.13173884 -0.03706978 -0.14095658
00000000: cc69 583e ac4f b63d 5ff7 4c3e 6ec8 d63c
00000010: adfb ee3d 609c 023d 52bd 6fba fe38 efbd
00000020: 53ec 90bd a91d 223b 3b0e 91bd 6536 b4bb
00000030: 1665 653c 24ce 1ebd 5337 3dbc 2daf e3bc
00000040: a832 e0bd 1fe0 07be 5aa7 013d 033c 9e3d
00000050: 9007 a9bc ccbf 013d 6711 1dbd 52f6 a9bd
00000060: 2fec 7bbd 2e6b febd b73e 2dbe d8ba 50bd
00000070: 4144 94bc 999d f9bd 928b 04be 5125 653d
00000080: 15d6 82bd 815e a5bd 553b 1b3d 9669 97bd
00000090: 6101 aa3d 3c74 24bc f797 263d f468 e6bc
000000a0: 03bd 4f3d daea 53bd 6b2c a8bd 6c08 8f3b
000000b0: c57b 4bbd 3f2f 18be 897a 5c3d ed2f b73c
000000c0: b281 04bd a77e 633c cc9f 053e 4654 3b3e
000000d0: e1c6 26be fe85 e0bd 29b5 85bd d5c6 95bd
000000e0: 4d4a 8c3d fb74 f0bc 4104 e6bd 424b 833d
000000f0: 7661 16be 0af8 34bc f06b 513d 9834 9abc
00000100: 57ca dcbc 210c c23d a12e a2bd 7950 09bd
00000110: 0b8b 37bd e9dc 703b e13a 573d 7158 a9bd
00000120: 1ade b8bd c726 debc 862d e1bc f48a 3f3d
00000130: 63bd 863d 74c8 ec3d 27e4 1f3d 1cbf 543d
00000140: 3c95 acbd cf14 5cbd d2cb 283d 7156 603d
00000150: 8f43 f7bd af26 343d f788 263c cc0a 50bd
00000160: 017c 60bd 0a41 f9bc bf1a a7bd abd5 54bd
00000170: 28f8 c23d 0962 10bc 93fb 85bd 5845 373b
00000180: 73d4 45bd 1a74 55b9 d3b1 2d3e f516 063d
00000190: 248b 60bd 7e73 d03c 98a5 933c 1436 31bb
000001a0: f5d4 1bbc 2bb4 1ebd 8b19 2d3d e82b 11bd
000001b0: 417d 99bd a545 34bd 9798 2fbe db14 ae3d
000001c0: 5916 e6bd bf66 ecbc 43ba 9c3c 13fb 7fbc
000001d0: bafd 0ebe d9c4 5f3c 5434 573e 6615 88bd
000001e0: 135c 903d f59f debd 18f4 d0bd ef99 29bd
000001f0: 8ff4 1cbd 8ce6 06be 7bd6 17bd ec56 10be

decoder.4.weight f4 [618, 128]
0.6481406 -0.03367275 0.12792492 0.041610274 0.054981112 0.17643364 0.101129435 -0.05417371
0.241377 -0.4489819 0.08542055 0.17479157 0.14874849 0.08862717 0.076700434 -0.06660557
0.01907689 0.17619058 0.058959622 0.3447878 0.34451753 -0.009200394 -0.10259128 -0.06046558
-0.024971787 -0.14344914 -0.13323022 -0.09660584 0.03864544 -0.07588037 0.104967855 -0.04666611
0.060253363 -0.05776327 0.18732418 -0.42857808 0.04643773 0.306443 -0.008566967 -0.022913946
0.06789186 0.07124965 -0.009830982 0.080447726 0.010555687 0.013672358 0.41951978 0.095573984
-0.046146613 0.54080105 -0.13065687 0.45372 0.27725226 -0.09610813 0.053427298 -0.11063189
-0.019943416 0.38755235 0.16009429 0.070813894 0.06095036 -0.29017153 -1.0624985 -0.060133
0.0014979148 0.34730142 -0.047708187 0.016548019 -0.06596588 -0.045339372 0.20251969 0.08335325
-0.0248684 0.062316474 0.48977733 -0.067742 0.1468395 -0.53527385 -0.029059889 0.10446171
-0.03674806 0.047075957 0.4362398 0.07022298 -0.05000165 0.18411022 -0.06481229 -0.0642476
0.09261507 -0.16283473 0.032774683 -0.1431932 0.10844699 0.053235687 0.27180433 0.016913485
0.113614775 -0.058146723 -0.22716193 -0.06371459 -0.065209866 0.03598731 0.11387345 -0.0247941
0.008347012 0.043489262 0.1874658 -0.053683165 -0.040669907 -0.035244357 0.16792923 -0.096809685
-0.038512375 -0.12832597 -0.019468633 -0.04238584 -0.062332112 -0.056751925 -0.30667394 0.15509643
0.297276 0.011502808 0.3232144 -0.13612662 -0.025281278 -0.0060564885 -0.81423616 -0.10324964
0.014660559 -0.028029747 -0.16436757 -0.034862496 -0.06485137 0.07729972 -0.059720945 0.10652271
0.12464711 -0.1318029 0.0019289582 0.00071230775 -0.06759007 0.028131492 0.077827126 0.026803322
-0.092844464 -0.07045429 -0.09609106 0.073640674 0.058185734 -0.04334045 -0.096312255 0.047852788
-0.036696974 -0.04005478 -0.03752939 -0.06705534 0.035547413 0.010355882 -0.06807097 -0.06314447
-0.03783312 -0.017031912 -0.015126004 0.061744943 -0.050835323 0.0923622 -0.07528764 -0.032864977
0.07626974 -0.013425384 0.048062332 -0.053614013 -0.00036745975 0.03549667 0.03175654 0.035826355
0.08022502 0.04287398 0.076923855 0.05241512 0.06997972 -0.055408303 -0.010275179 -0.25247914
-0.09572202 0.04074684 0.0017871507 -0.13248177 -0.0335442 0.08294598 -0.14466904 -0.005588828
0.07562784 0.046642262 -0.13752878 -0.040708344 -0.17973322 -0.071703255 -0.074862026 -0.09293218
-0.027999206 0.06002828 0.08280848 -0.007080043 -0.026707426 0.05897462 -0.05788174 -0.036668453
-0.114430465 -0.099205695 0.06736756 -0.044090446 -0.08667069 0.032029413 -0.112728134 -0.12219068
-0.03872293 -0.04934029 -0.0997085 0.0060416353 -0.034411725 0.027461864 -0.16000271 0.0103988275
0.025933202 0.06535414 0.014875465 -0.06806317 0.04349446 -0.037182655 -0.07825601 -0.1186922
0.061714225 -0.08931893 0.08252382 0.08821192 -0.027682124 -0.01108312 -0.017954322 -0.042638604
0.015165897 0.05590476 0.05838621 -0.0149477245 -0.054275367 0.06722886 0.1693414 -0.018712893
0.09372559 -0.08930731 0.118534565 0.020721657 0.0070129386 0.0112488605 -0.04577094 -0.043574996
00000000: 8bec 253f 70ec 09bd c0fe 023e 896f 2a3d
00000010: e033 613d 05ab 343e f31c cf3d 41e5 5dbd
00000020: 882b 773e f5e0 e5be f8f0 ae3d 90fc 323e
00000030: 8651 183e 2982 b53d 1e15 9d3d 8068 88bd
00000040: 2347 9c3c 4e6b 343e a57f 713d 0788 b03e
00000050: 9a64 b03e 40bd 16bc 611b d2bd c2aa 77bd
00000060: a291 ccbc 55e4 12be 816d 08be 48d9 c5bd
00000070: ae4a 1e3d 2b67 9bbd 63f9 d63d f724 3fbd
00000080: 3bcc 763d 2e99 6cbd e9d1 3f3e 966e dbbe
00000090: 7d35 3e3d 19e6 9c3e 775c 0cbc 07b6 bbbc
000000a0: e30a 8b3d 56eb 913d 2112 21bc c7c1 a43d
000000b0: c3f1 2c3c 0702 603c 4ccb d63e 4bbc c33d
000000c0: 3b04 3dbd f071 0a3f eaca 05be fd4d e83e
000000d0: 02f4 8d3e 57d4 c4bd 95d6 5a3d f992 e2bd
000000e0: 6060 a3bc 436d c63e c2ef 233e e006 913d
000000f0: 16a7 793d 5d91 94be f3ff 87bf 054e 76bd
00000100: ae55 c43a 7ed1 b13e a969 43bd b68f 873c
00000110: 1f19 87bd c7b5 39bd 5261 4f3e 1cb5 aa3d
00000120: d1b8 cbbc 8f3f 7f3d 18c4 fa3e 51bc 8abd
00000130: 185d 163e b507 09bf 010f eebc 05f0 d53d
00000140: 2285 16bd b8d2 403d d35a df3e 11d1 8f3d
00000150: 88ce 4cbd 6487 3c3e 4ebc 84bd 3f94 83bd
00000160: f8ac bd3d 26be 26be bf3e 063d 3da1 12be
00000170: 7519 de3d aa0d 5a3d f029 8b3e 268e 8a3c
00000180: ddae e83d 422b 6ebd 239d 68be cc7c 82bd
00000190: c08c 85bd 6e67 133d 7c36 e93d ff1c cbbc
000001a0: e8c1 083c cc21 323d 09f7 3f3e e1e2 5bbd
000001b0: 7d95 26bd 635c 10bd a4f5 2b3e 2844 c6bd
000001c0: 27bf 1dbd e267 03be af7c 9fbc c69c 2dbd
000001d0: f54f 7fbd b574 68bd 5e04 9dbe 99d1 1e3e
000001e0: 8f34 983e 4676 3c3c 5c7c a53e c764 0bbe
000001f0: af1a cfbc 8275 c6bb c871 50bf 8c74 d3bd
00000200: d732 703c a49e e5bc f94f 28be facb 0ebd
00000210: ccd0 84bd 514f 9e3d f39d 74bd 9428 da3d
00000220: fc46 ff3d 57f7 06be 19d5 fc3a 2aba 3a3a
00000230: aa6c 8abd 0474 e63c d463 9f3d a492 db3c
00000240: 3d25 bebd 574a 90bd 64cb c4bd ecd0 963d
00000250: 2a54 6e3d c185 31bd 5c3f c5bd 4901 443d
00000260: 914f 16bd 7b10 24bd 6bb8 19bd 4f54 89bd
00000270: 2a9a 113d b8ab 293c cb68 8bbd e351 81bd
00000280: e7f6 1abd 8286 8bbc 0fd3 77bc 44e8 7c3d
00000290: b338 50bd 6528 bd3d 6830 9abd 6d9d 06bd
000002a0: 4f33 9c3d 24f6 5bbc 02dd 443d 5e9a 5bbd
000002b0: 9da7 c0b9 f564 113d 2513 023d a8be 123d
000002c0: 044d a43d a09c 2f3d 418a 9d3d 3db1 563d
000002d0: 8751 8f3d d1f3 62bd 3959 28bc f244 81be
000002e0: e809 c4bd 29e6 263d d43e ea3a 4da9 07be
000002f0: a565 09bd 95df a93d 1f24 14be 7d22 b7bb
00000300: c5e2 9a3d f50b 3f3d 58d4 0cbe cbbd 26bd
00000310: fc0b 38be 28d9 92bd 4351 99bd 3a53 bebd
00000320: 975e e5bc 37e0 753d 7e97 a93d b5ff e7bb
00000330: 88c9 dabc 5f8f 713d 6715 6dbd a931 16bd
00000340: 855a eabd 5b2c cbbd 01f8 893d 2f98 34bd
00000350: 6780 b1bd 4631 033d 02de e6bd 1b3f fabd
00000360: ef9b 1ebd 0b19 4abd f833 ccbd e9f8 c53b
00000370: 4ff3 0cbd b4f7 e03c c0d7 23be d85f 2a3c
00000380: de71 d43c 64d8 853d 39b8 733c b464 8bbd
00000390: 3f27 323d d74c 18bd b044 a0bd e514 f3bd
000003a0: 0ec8 7c3d d8ec b6bd 4002 a93d 73a8 b43d
000003b0: 9fc5 e2bc f995 35bc f114 93bc d1a5 2ebd
000003c0: 627a 783c 64fc 643d 6126 6f3d 4de7 74bc
000003d0: d94f 5ebd 49af 893d d567 2d3e c84b 99bc
000003e0: 34f3 bf3d c0e6 b6bd 40c2 f23d 77c0 a93c
000003f0: cbcc e53b 244d 383c 4f7a 3bbd b27b 32bd
